…
size\", \"output_size\", \"num_params\", \"kernel_size\"],\n    depth=4)\n\n======================================================================================================================================================\nLayer (type:depth-idx)                             Input Shape               Output Shape              Param #                   Kernel Shape\n======================================================================================================================================================\nVegAnnModel                                        [1, 3, 512, 512]          [1, 1, 512, 512]          --                        --\n├─Unet: 1-1                                        [1, 3, 512, 512]          [1, 1, 512, 512]          --                        --\n│    └─ResNetEncoder: 2-1                          [1, 3, 512, 512]          [1, 3, 512, 512]          --                        --\n│    │    └─Conv2d: 3-1                            [1, 3, 512, 512]          [1, 64, 256, 256]         9,408                     [7, 7]\n│    │    └─BatchNorm2d: 3-2                       [1, 64, 256, 256]         [1, 64, 256, 256]         128                       --\n│    │    └─ReLU: 3-3                              [1, 64, 256, 256]         [1, 64, 256, 256]         --                        --\n│    │    └─MaxPool2d: 3-4                         [1, 64, 256, 256]         [1, 64, 128, 128]         --                        3\n│    │    └─Sequential: 3-5                        [1, 64, 128, 128]         [1, 64, 128, 128]         --                        --\n│    │    │    └─BasicBlock: 4-1                   [1, 64, 128, 128]         [1, 64, 128, 128]         73,984                    --\n│    │    │    └─BasicBlock: 4-2                   [1, 64, 128, 128]         [1, 64, 128, 128]         73,984                    --\n│    │    │    └─BasicBlock: 4-3                   [1, 64, 128, 128]         [1, 64, 128, 128]         73,984                    --\n│    │    └─Sequential: 3-6                        [1, 64, 128, 128]         [1, 128, 64, 64]          --                        --\n│    │    │    └─BasicBlock: 4-4                   [1, 64, 128, 128]         [1, 128, 64, 64]          230,144                   --\n│    │    │    └─BasicBlock: 4-5                   [1, 128, 64, 64]          [1, 128, 64, 64]          295,424                   --\n│    │    │    └─BasicBlock: 4-6                   [1, 128, 64, 64]          [1, 128, 64, 64]          295,424                   --\n│    │    │    └─BasicBlock: 4-7                   [1, 128, 64, 64]          [1, 128, 64, 64]          295,424                   --\n│    │    └─Sequential: 3-7                        [1, 128, 64, 64]          [1, 256, 32, 32]          --                        --\n│    │    │    └─BasicBlock: 4-8                   [1, 128, 64, 64]          [1, 256, 32, 32]          919,040                   --\n│    │    │    └─BasicBlock: 4-9                   [1, 256, 32, 32]          [1, 256, 32, 32]          1,180,672                 --\n│    │    │    └─BasicBlock: 4-10                  [1, 256, 32, 32]          [1, 256, 32, 32]          1,180,672                 --\n│    │    │    └─BasicBlock: 4-11                  [1, 256, 32, 32]          [1, 256, 32, 32]          1,180,672                 --\n│    │    │    └─BasicBlock: 4-12                  [1, 256, 32, 32]          [1, 256, 32, 32]          1,180,672                 --\n│    │    │    └─BasicBlock: 4-13                  [1, 256, 32, 32]          [1, 256, 32, 32]          1,180,672                 --\n│    │    └─Sequential: 3-8                        [1, 256, 32, 32]          [1, 512, 16, 16]          --                        --\n│    │    │    └─BasicBlock: 4-14                  [1, 256, 32, 32]          [1, 512, 16, 16]          3,673,088                 --\n│    │    │    └─BasicBlock: 4-15                  [1, 512, 16, 16]          [1, 512, 16, 16]          4,720,640                 --\n│    │    │    └─BasicBlock: 4-16                  [1, 512, 16, 16]          [1, 512, 16, 16]          4,720,640                 --\n│    └─UnetDecoder: 2-2                            [1, 3, 512, 512]          [1, 16, 512, 512]         --                        --\n│    │    └─Identity: 3-9                          [1, 512, 16, 16]          [1, 512, 16, 16]          --                        --\n│    │    └─ModuleList: 3-10                       --                        --                        --                        --\n│    │    │    └─DecoderBlock: 4-17                [1, 512, 16, 16]          [1, 256, 32, 32]          2,360,320                 --\n│    │    │    └─DecoderBlock: 4-18                [1, 256, 32, 32]          [1, 128, 64, 64]          590,336                   --\n│    │    │    └─DecoderBlock: 4-19                [1, 128, 64, 64]          [1, 64, 128, 128]         147,712                   --\n│    │    │    └─DecoderBlock: 4-20                [1, 64, 128, 128]         [1, 32, 256, 256]         46,208                    --\n│    │    │    └─DecoderBlock: 4-21                [1, 32, 256, 256]         [1, 16, 512, 512]         6,976                     --\n│    └─SegmentationHead: 2-3                       [1, 16, 512, 512]         [1, 1, 512, 512]          --                        --\n│    │    └─Conv2d: 3-11                           [1, 16, 512, 512]         [1, 1, 512, 512]          145                       [3, 3]\n│    │    └─Identity: 3-12                         [1, 1, 512, 512]          [1, 1, 512, 512]          --                        --\n│    │    └─Activation: 3-13                       [1, 1, 512, 512]          [1, 1, 512, 512]          --                        --\n│    │    │    └─Identity: 4-22                    [1, 1, 512, 512]          [1, 1, 512, 512]          --                        --\n======================================================================================================================================================\nTotal params: 24,436,369\nTrainable params: 24,436,369\nNon-trainable params: 0\nTotal mult-adds (G): 31.26\n===============================================================================================================
…
